model/cry_model/cry_model.tflite (tflite, 48160 bytes, 8 tensors)

arith.constant3 f4 [64]
0	0xbca4e4b0	-0.020128578
1	0xbc8d8749	-0.017276423
2	0x3cbde99c	0.023182683
3	0xbc8aa7ac	-0.016925655
4	0x3c9f90e6	0.019478273
5	0x3d03ad81	0.032147888
6	0xbbcd1d32	-0.006259584
7	0xbc0c2257	-0.008553109
8	0xbc78b233	-0.015179205
9	0x3c6eafa0	0.014568239
10	0x3d2c68c0	0.042092085
11	0x3d30de2c	0.04318063
12	0xbc597e1c	-0.013274696
13	0xbc868771	-0.016422005
14	0x3cc1c32f	0.023652641
15	0x3c06c2b8	0.0082251355
16	0x3b182984	0.0023218105
17	0x3c99e8c9	0.018787758
18	0xbb0a54e9	-0.002110774
19	0x3d1ac10c	0.03778176
20	0xbc0e2a17	-0.008677027
21	0xbc6ac5a5	-0.014329349
22	0x3c51eafa	0.01281237
23	0xbc6386c6	-0.013887113
24	0x3c66dcb8	0.014090709
25	0x3caa4f6d	0.020789826
26	0xbbaf2101	-0.0053445105
27	0xbc15ad74	-0.009135593
28	0xbc8c09b6	-0.017094474
29	0x3ba67c61	0.005080745
30	0x3c66e4c9	0.014092633
31	0x3a9288a6	0.001117964
32	0x3c837323	0.016046112
33	0xbb82f074	-0.0039959494
34	0x3cb949d6	0.022618216
35	0x00000000	0.0
36	0xbb846e29	-0.0040414524
37	0xbc4c475c	-0.012468185
38	0x39a55ea4	0.00031541765
39	0xbc374c1b	-0.011187579
40	0x3c3660f0	0.01113151
41	0xbc490960	-0.012270302
42	0xbc612117	-0.013740799
43	0x3d469331	0.048480216
44	0x3c9f06c0	0.019412398
45	0xbc81cc47	-0.015844477
46	0x3cea75bd	0.028620595
47	0x3ca43219	0.02004342
48	0xbbaf25ec	-0.005345097
49	0x3cef6687	0.029223694
50	0x3c963b0f	0.018338708
51	0xbc487b51	-0.012236432
52	0xbc26c7df	-0.010179489
53	0xbc869312	-0.01642755
54	0xbbf60a16	-0.0075085266
55	0xbc5bdeb9	-0.0134198
56	0x3d2d435c	0.042300567
57	0x3d4268ea	0.047463335
58	0x3d25cc2d	0.04047792
59	0x3c96ac97	0.018392844
60	0xbc029bad	-0.007971686
61	0xbc33d5ab	-0.010976235
62	0x3afbe681	0.0019218476
63	0xbbd644a9	-0.0065389466

arith.constant4 f4 [5]
0	0xbd168a10	-0.03675276
1	0x3b084156	0.0020790896
2	0xbc16a3c6	-0.00919432
3	0x3d16a56b	0.03677885
4	0xbc56af3a	-0.013103301

arith.constant5 f4 [5, 64]
0	0x3ea9da00	0.33174133
1	0x3d3e9aea	0.046534456
2	0x3e129e83	0.1431828
3	0x3d689eb7	0.056791987
4	0x3e1744aa	0.14772287
5	0xbd2ec4ad	-0.042668033
6	0x3d792866	0.060829543
7	0xbe5c2e4e	-0.21502039
8	0x3e95f9f7	0.2929227
9	0x3eb284ab	0.34866843
10	0xbe447419	-0.19184913
11	0xbe4cd460	-0.2000289
12	0x3e350494	0.17677528
13	0x3e21f71e	0.15816924
14	0x3d41cd23	0.047314774
15	0x3e65f78b	0.22457711
16	0xbe6f6c5a	-0.23381177
17	0xbe2a977f	-0.16659354
18	0xbe4ef9a7	-0.20212422
19	0xbe2d1886	-0.16903886
20	0x3d04365d	0.032278407
21	0xbe64ce1f	-0.22344254
22	0x3e721550	0.23640943
23	0x3d8c2989	0.0684386
24	0xbea802a8	-0.32814527
25	0x3d190f74	0.037368253
26	0xbd950ce3	-0.072778486
27	0x3d66b44b	0.056324285
28	0xbd866f72	-0.06564225
29	0x3e880e31	0.26573327
30	0xbebce536	-0.36893624
31	0x3eb63999	0.3559082
32	0xbdc76a4b	-0.09737071
33	0x3e47c4cb	0.19508664
34	0x3bc14596	0.005898188
35	0xbd1a0058	-0.037597984
36	0x3e5b0c64	0.21391445
37	0x3da629b5	0.08113424
38	0x3d3d2c56	0.04618486
39	0xbe757930	-0.2397201
40	0xbe6bf1ab	-0.23041408
41	0x3eb3f2e8	0.3514626
42	0x3c7ed3ba	0.015553409
43	0xbdbd2ac4	-0.092366725
44	0xbe14bc3b	-0.14524929
45	0x3e93c1dd	0.28858843
46	0xbdeebb73	-0.11656847
47	0xbe7d902a	-0.24762025
48	0x3daae12d	0.0834373
49	0x3dbe51f7	0.09292977
50	0xbcd5f57a	-0.026118029
51	0x3dbd529a	0.092442706
52	0xbe46e5aa	-0.19423547
53	0x3e80577b	0.25066742
54	0x3e87fe4b	0.26561198
55	0xbd9ff2cf	-0.07809984
56	0xbe36c064	-0.17846829
57	0xbe0e9220	-0.1392293
58	0xbe2d06f6	-0.16897187
59	0x3e737836	0.23776326
60	0xbe805ba2	-0.2506991
61	0x3d884794	0.066542774
62	0xbe017066	-0.12640533
63	0xbd4080ea	-0.046997942
64	0xbd582250	-0.052767098
65	0x3e877447	0.264559
66	0x3dad1572	0.08451356
67	0xbd450904	-0.0481043
68	0xbec55c12	-0.38546807
69	0xbe88ccad	-0.26718655
70	0x3e8f434a	0.27981025
71	0x3d99601e	0.07489036
72	0xbe2fbebd	-0.17162605
73	0x3e4201a6	0.18945941
74	0x3dd06516	0.101755306
75	0xbeaa79c1	-0.33296016
76	0x3e6c1576	0.23055062
77	0xbe908b10	-0.28231096
78	0xbecaaa88	-0.3958323
79	0x3e926ac1	0.28597072
80	0x3e6cb6ff	0.23116682
81	0x3edf862e	0.43657058
82	0x3e275b66	0.1634346
83	0xbd4a2fda	-0.04936204
84	0xbdb477ed	-0.088119365
85	0x3e31c010	0.17358422
86	0xbe52c046	-0.20581159
87	0x3e863a1a	0.26216203
88	0xbd350be2	-0.044200785
89	0x3ec176ea	0.37786037
90	0x3e124293	0.14283209
91	0xbc158798	-0.009126566
92	0x3e937396	0.28799123
93	0xbea0824d	-0.31349412
94	0xbe41539c	-0.1887955
95	0x3ea5e0e1	0.3239813
96	0x3e04ed6f	0.12981199
97	0x3ecf3a13	0.40473995
98	0xbea60476	-0.32425278
99	0x3da29a8c	0.07939634
100	0x3e85e23a	0.2614916
101	0x3e8dbf72	0.27685124
102	0x3cec7915	0.02886633
103	0x3d76d84e	0.060264878
104	0xbd047eba	-0.03234742
105	0x3e1cee00	0.15325165
106	0x3cbcb799	0.023036765
107	0xbe08e75f	-0.13369511
108	0x3e8078e7	0.2509224
109	0x3df3f0ee	0.11911188
110	0x3c739e17	0.0148692345
111	0xbeb2d9a9	-0.34931687
112	0x3cc5e89d	0.02415877
113	0xbd53a42e	-0.051670246
114	0xbec6494d	-0.387278
115	0xbe84fa1b	-0.25972065
116	0xbeab3e69	-0.33446053
117	0x3c06e5b4	0.008233476
118	0xbe3162bf	-0.17322825
119	0xbd01a29e	-0.031649224
120	0xbd59fcbd	-0.053219546
121	0xbc8f1a66	-0.017468642
122	0xbe9a22ab	-0.30104575
123	0xbd8c98d5	-0.06865088
124	0xbead5b67	-0.33858797
125	0x3e8f116d	0.27942982
126	0x3e94f063	0.2908965
127	0xbec57e07	-0.38572714
128	0x3e97e1d7	0.2966449
129	0xbe4ed02a	-0.20196596
130	0xbe3e8986	-0.18607149
131	0xbc33cd11	-0.010974185
132	0xbe8ce7b1	-0.27520517
133	0x3e55ff54	0.20898181
134	0x3e0c4461	0.1369796
135	0x3e695d13	0.22789411
136	0x3e97a975	0.29621473
137	0xbe51b7c1	-0.20480253
138	0xbe3ca569	-0.18422474
139	0xbd32ceda	-0.0436543
140	0xbc48c7ce	-0.012254668
141	0xbe254420	-0.16139269
142	0x3e18c94a	0.14920536
143	0x3e3fd1a5	0.18732317
144	0x3e712b66	0.23551711
145	0xbcd4e554	-0.025988258
146	0x3e01bfd6	0.12670836
147	0xbe82a2f6	-0.25514954
148	0xbe8e9d56	-0.27854413
149	0xbe9170e5	-0.28406444
150	0xbe116745	-0.1419955
151	0xbe2eb3c7	-0.17060767
152	0x3d38acdd	0.04508673
153	0xbe235b43	-0.15952782
154	0xbc3b1488	-0.011418469
155	0xbe8f1a17	-0.27949592
156	0x3dc6b7b2	0.09703006
157	0xbe945005	-0.289673
158	0x3e9a2594	0.30106795
159	0xbd9a1a14	-0.07524505
160	0x3e0118aa	0.12607065
161	0xbe1ce97e	-0.15323445
162	0x3da56965	0.08076743
163	0xbe50171c	-0.20321316
164	0xbe24d580	-0.16097069
165	0x3e5c30b4	0.21502954
166	0x3e45cf48	0.19317353
167	0x3d1425f4	0.036169007
168	0xbddacdb6	-0.106837675
169	0x3d933e70	0.071896434
170	0x3e714bc4	0.23564059
171	0x3dd1a222	0.102360025
172	0x3d6bfe9c	0.05761586
173	0xbe4551f3	-0.19269542
174	0xbdeee684	-0.11665061
175	0x3ddc632a	0.107611015
176	0x3e673b5c	0.22581238
177	0x3e0988c6	0.13431081
178	0xbcae3747	-0.021266593
179	0xbe34f499	-0.17671432
180	0x3e6ee047	0.23327743
181	0xbe99dffc	-0.300537
182	0xbe22fcb4	-0.15916711
183	0x3d6e1280	0.05812311
184	0x3d8f440a	0.06995399
185	0x3e63b0da	0.22235432
186	0xbcb5b2ae	-0.022179928
187	0x3cba6749	0.022754328
188	0x3dccd43c	0.10001418
189	0x3d8d902b	0.069122635
190	0xbe5171a0	-0.20453501
191	0xbddce649	-0.10786111
192	0xbe8b9693	-0.27263317
193	0xbcf398cf	-0.02973595
194	0x3e3512fa	0.1768302
195	0xbe349e99	-0.17638625
196	0x3eadf554	0.33976233
197	0x3e44a771	0.19204499
198	0xbc2c71c5	-0.010525172
199	0x3ce79fd3	0.028274452
200	0xbd9dde87	-0.07708459
201	0x3debdbed	0.11516557
202	0x3dd5f9cd	0.10448036
203	0x3e86ba49	0.26314
204	0xbe455903	-0.19272237
205	0xbdc894ce	-0.09794007
206	0x3ea29e24	0.31761277
207	0xbbda2f55	-0.0066584744
208	0xbdfeeea8	-0.12447864
209	0xbe9b9ab9	-0.30391482
210	0x3e0bccde	0.1365237
211	0x3e2ecb25	0.17069681
212	0xbde31744	-0.11088422
213	0xbe85b930	-0.2611785
214	0x3dd2f0ee	0.1029986
215	0xbd926cbe	-0.07149647
216	0x3c69fe8a	0.014281878
217	0x3d6dec1e	0.058086507
218	0x3e2756a9	0.16341652
219	0xbe429c3d	-0.19004913
220	0xbdd1b9de	-0.102405295
221	0xbe3f3c1f	-0.18675278
222	0x3cd5c657	0.026095552
223	0x3b82aa62	0.0039875964
224	0x3e21290d	0.15738316
225	0xbeeafbff	-0.45895383
226	0x3e9e9370	0.3097186
227	0x3de47c94	0.11156574
228	0x3e3ae50b	0.18251435
229	0xbe6478a2	-0.22311643
230	0x3e19d289	0.15021719
231	0xbe31dbc7	-0.17368995
232	0xbeac7ff1	-0.33691362
233	0xbf0075a8	-0.5017953
234	0xbdd79109	-0.1052571
235	0x3e3c9d1f	0.18419312
236	0xbdf40ea3	-0.11916854
237	0xbe116360	-0.14198065
238	0x3e93b8f0	0.28852034
239	0x3dfc7c66	0.123284146
240	0xbe112f70	-0.14178252
241	0x3e9907b4	0.2988869
242	0xbcf15774	-0.029460646
243	0xbe1375ed	-0.14400454
244	0xbe31e21b	-0.17371409
245	0xbdb4a34e	-0.088202104
246	0x3e959037	0.2921159
247	0xbd7f8716	-0.062384687
248	0x3e954146	0.29151362
249	0x3ea6fb35	0.3261353
250	0x3d21de5b	0.039518695
251	0x3e86e781	0.26348498
252	0xbe79af8c	-0.24383372
253	0xbcd53ec2	-0.026030902
254	0x3e1112c6	0.14167318
255	0xbdc14870	-0.094376445

arith.constant6 f4 [32, 1, 3, 1]
0	0xbdb99a21	-0.09062601
1	0x3e178022	0.14794973
2	0x3e709376	0.23493752
3	0xbda531b3	-0.0806612
4	0x3f054849	0.52063423
5	0x3e1a2633	0.15053634
6	0xbe850b90	-0.25985384
7	0x3d6e04e8	0.058110148
8	0xbd9a13b6	-0.07523291
9	0xbdddf274	-0.1083726
10	0xbea28d25	-0.3174831
11	0x3d128607	0.03577235
12	0x3f0b739d	0.54473287
13	0xbb57a241	-0.0032903107
14	0x3d54c353	0.05194409
15	0x3d9de21b	0.07709142
16	0x3ea66914	0.32502043
17	0xbe06568b	-0.13118951
18	0xbeaf7eea	-0.34276515
19	0xbe9cd2f2	-0.30629689
20	0xbe06f0d6	-0.13177809
21	0xbd1b3752	-0.037894554
22	0x3ef7e0f2	0.48413807
23	0x3e025fcd	0.12731858
24	0x3b830de6	0.0039994596
25	0xbe68c00b	-0.22729509
26	0xbe913adb	-0.28365216
27	0x3effe2a3	0.49977598
28	0xbdf079b9	-0.11741967
29	0x3e8c3bdc	0.2738942
30	0xbe10b672	-0.14132097
31	0xbe6dc09a	-0.23218003
32	0xbecb2846	-0.39679164
33	0xbe6e8671	-0.23293473
34	0xbe9c5bce	-0.3053879
35	0xbe0677f1	-0.13131692
36	0xbe967fb8	-0.29394317
37	0x3e0198da	0.12655964
38	0x3eabb399	0.3353546
39	0xbdb2af44	-0.087248355
40	0x3ec24ba1	0.37948325
41	0xbd1568cc	-0.036476895
42	0x3efa11df	0.4884176
43	0x3e1ad0a5	0.15118654
44	0xbe447dc6	-0.19188604
45	0xbe927228	-0.2860272
46	0x3e595619	0.2122425
47	0x3efc6907	0.4929888
48	0x3ea0c33f	0.3139896
49	0x3c846388	0.016160741
50	0xbe87e31f	-0.26540467
51	0x3eccdbf4	0.4001156
52	0xbdf83c34	-0.12120858
53	0x3e8fdc99	0.2809799
54	0xbe5310cd	-0.20611878
55	0x3ed6b9d5	0.41938654
56	0x3df7eb75	0.12105457
57	0x3ee0e085	0.43921295
58	0xbe924a77	-0.28572437
59	0xbbd649ba	-0.0065395506
60	0xbe0bee4e	-0.13665125
61	0x3efe49a4	0.49665558
62	0xbe3922aa	-0.1807963
63	0xbded107f	-0.11575412
64	0x3e344061	0.17602684
65	0xbdf54d2c	-0.1197761
66	0x3ebcb6a9	0.3685811
67	0xbda91584	-0.08256057
68	0xbebfe641	-0.37480357
69	0x3ea8512b	0.32874426
70	0xbe1856f5	-0.14876921
71	0x3e8876d6	0.26653165
72	0xbe359208	-0.17731488
73	0xbdfecbb2	-0.124411955
74	0x3d432eef	0.04765218
75	0xbd07aa12	-0.033121176
76	0xbe097bc2	-0.13426116
77	0x3f053257	0.5202994
78	0xbe9d964a	-0.30778724
79	0x3e0165aa	0.12636438
80	0xbc95d1bf	-0.018288491
81	0xbe49270e	-0.19643804
82	0x3e029665	0.12752683
83	0xbe7dde42	-0.24791816
84	0xbe664b5a	-0.22489682
85	0xb90c6d4d	-0.00013392158
86	0xbc5602c1	-0.01306218
87	0xbe20ea9f	-0.15714501
88	0xbe7cbdad	-0.2468173
89	0xbe72a8a6	-0.23697147
90	0x3e93ad47	0.28843138
91	0x3eb3d097	0.3512008
92	0x3d98a3ce	0.07453118
93	0x3ed245d8	0.41068912
94	0xbe75a594	-0.23988944
95	0xbe8d65ad	-0.27616635

arith.constant7 f4 [64]
0	0xbca7cc11	-0.020483049
1	0xbb94697f	-0.0045291777
2	0xbc22bf3f	-0.009933292
3	0xbd07df86	-0.033172153
4	0x3a0c6ba4	0.0005356616
5	0x3cc605f4	0.02417276
6	0x3c864b7a	0.016393412
7	0xbc6d1f64	-0.014472816
8	0x3d241ebc	0.040068373
9	0xbc632311	-0.013863341
10	0xbbc43014	-0.0059871767
11	0xbcd17ae1	-0.025571289
12	0x3d3ad134	0.045609668
13	0x3ce74052	0.028228913
14	0x3cb6854e	0.022280362
15	0x3c85490c	0.016270183
16	0x3be2871b	0.0069130785
17	0x3bd010c3	0.0063496544
18	0xbcaca236	-0.021073442
19	0xbc864516	-0.016390365
20	0x3c242cae	0.010020418
21	0xbc88b579	-0.016688095
22	0x3d08a106	0.03335669
23	0x3c97231a	0.018449355
24	0xbb94894f	-0.00453297
25	0xbc086099	-0.008323812
26	0x3c3f2adb	0.011667932
27	0x3cab14cc	0.02088394
28	0x3bfca3eb	0.00770997
29	0x3d01a495	0.0316511
30	0xbbaae373	-0.0052151023
31	0x3d0563fe	0.032566063
32	0xbabca71b	-0.0014393063
33	0x3d004422	0.031314977
34	0x3c2dcd18	0.01060798
35	0x3c275718	0.010213636
36	0x3c8dcd46	0.017309796
37	0x3becf914	0.007231841
38	0x3c85f2eb	0.016351184
39	0x3cb85270	0.022500247
40	0xbcd956a7	-0.026530577
41	0x3cb60456	0.022218864
42	0xbbf7ca1a	-0.007561934
43	0xbcacab92	-0.021077905
44	0xbc5d4d65	-0.013507222
45	0x3c113bd4	0.008864362
46	0x3d053286	0.032518886
47	0x3bc81fcf	0.0061073075
48	0x3c946317	0.018113656
49	0x3cf11e31	0.029433342
50	0x3cd1af9f	0.025596438
51	0xbc468a5a	-0.0121179465
52	0x3cf6c513	0.03012327
53	0xbc5955d0	-0.013265088
54	0x3ca76fc4	0.020439036
55	0xba63652c	-0.00086744386
56	0xbc9e87d9	-0.019351887
57	0x3d281fd5	0.041045982
58	0x3b668d40	0.0035179406
59	0xbc4caff6	-0.012493124
60	0x3d11589d	0.0354849
61	0xbb818cef	-0.003953568
62	0x3cf729f5	0.030171374
63	0xbb13af76	-0.0022535003

arith.constant8 f4 [32]
0	0x3b7c7304	0.0038520703
1	0x3b988c46	0.004655394
2	0x3b9f9cb7	0.004870977
3	0x3c589361	0.013218732
4	0x3bbc1488	0.005739752
5	0x3a991b02	0.0011681023
6	0x3c84b0a0	0.016197503
7	0x3b6954ae	0.0035603452
8	0x3c621f39	0.013801389
9	0x3b55a013	0.0032596632
10	0x3c27d08e	0.010242594
11	0x3c7ead55	0.015544255
12	0x39d2fc1a	0.00040242152
13	0x389ca9ff	7.470324e-05
14	0x3b09dadf	0.0021034998
15	0x3a4b0120	0.0007744003
16	0x3b359f48	0.0027713347
17	0x3b26c67c	0.0025447896
18	0x3b87962c	0.004137775
19	0xbb884dec	-0.0041596796
20	0xbb9f5104	-0.0048619527
21	0xbc512114	-0.012764234
22	0xbbaf3b5b	-0.005347652
23	0x3a11144c	0.00055343355
24	0x38ab5dd0	8.171389e-05
25	0x3a80352e	0.0009781474
26	0xbc0af5ed	-0.008481485
27	0x3ad4c430	0.0016232785
28	0x3c756622	0.014977964
29	0x3c72e492	0.014825003
30	0x3c4b1243	0.012394491
31	0xbc25230c	-0.010079157

tfl.pseudo_qconst i1 [64, 1, 3, 32]
0	0xca	-54
1	0x12	18
2	0x0f	15
3	0xa5	-91
4	0x3c	60
5	0xdf	-33
6	0x1c	28
7	0x29	41
8	0xbb	-69
9	0x56	86
10	0x89	-119
11	0x13	19
12	0x12	18
13	0xfa	-6
14	0xf0	-16
15	0xe0	-32
16	0xdc	-36
17	0xc6	-58
18	0xaa	-86
19	0x51	81
20	0xb3	-77
21	0xf5	-11
22	0x5a	90
23	0x8f	-113
24	0x9a	-102
25	0xc7	-57
26	0x9b	-101
27	0x1b	27
28	0x3b	59
29	0x86	-122
30	0xba	-70
31	0xaf	-81
32	0x0e	14
33	0x26	38
34	0x55	85
35	0x58	88
36	0xeb	-21
37	0x62	98
38	0x22	34
39	0xd1	-47
40	0xc3	-61
41	0xfb	-5
42	0xd5	-43
43	0x26	38
44	0x15	21
45	0xb7	-73
46	0x4b	75
47	0x9e	-98
48	0x59	89
49	0xdf	-33
50	0x2d	45
51	0x20	32
52	0xc7	-57
53	0x32	50
54	0x1e	30
55	0x9c	-100
56	0x9b	-101
57	0xd3	-45
58	0x92	-110
59	0xcc	-52
60	0xf2	-14
61	0xcd	-51
62	0xc9	-55
63	0x8d	-115
64	0x9c	-100
65	0x50	80
66	0x58	88
67	0x6b	107
68	0x22	34
69	0x81	-127
70	0xb5	-75
71	0x86	-122
72	0xe9	-23
73	0xa9	-87
74	0xb8	-72
75	0x82	-126
76	0x00	0
77	0x30	48
78	0x5a	90
79	0xf7	-9
80	0xd7	-41
81	0x4b	75
82	0xf2	-14
83	0xef	-17
84	0x58	88
85	0x0b	11
86	0x23	35
87	0xa8	-88
88	0x97	-105
89	0x84	-124
90	0x46	70
91	0xb6	-74
92	0x4f	79
93	0x98	-104
94	0x11	17
95	0xdd	-35
96	0x95	-107
97	0x31	49
98	0x30	48
99	0x21	33
100	0xe6	-26
101	0xf8	-8
102	0x03	3
103	0x09	9
104	0xd0	-48
105	0x01	1
106	0x52	82
107	0x28	40
108	0xfd	-3
109	0x03	3
110	0xb8	-72
111	0xac	-84
112	0x99	-103
113	0x10	16
114	0xdd	-35
115	0x37	55
116	0xe6	-26
117	0xca	-54
118	0xe8	-24
119	0xdf	-33
120	0xba	-70
121	0x4b	75
122	0x25	37
123	0x47	71
124	0x13	19
125	0x59	89
126	0xac	-84
127	0xe2	-30
128	0xe0	-32
129	0xf3	-13
130	0x5b	91
131	0x75	117
132	0x1a	26
133	0x3a	58
134	0x68	104
135	0x52	82
136	0x17	23
137	0x36	54
138	0x79	121
139	0x2b	43
140	0x57	87
141	0x27	39
142	0x24	36
143	0x22	34
144	0x11	17
145	0x3a	58
146	0xed	-19
147	0x50	80
148	0x59	89
149	0x1f	31
150	0x6f	111
151	0x39	57
152	0x65	101
153	0xc4	-60
154	0x3c	60
155	0x6e	110
156	0xe4	-28
157	0x12	18
158	0x84	-124
159	0x6a	106
160	0x10	16
161	0xc9	-55
162	0x33	51
163	0x5e	94
164	0xb2	-78
165	0x48	72
166	0xec	-20
167	0xf8	-8
168	0xf4	-12
169	0xf9	-7
170	0x32	50
171	0x60	96
172	0x6d	109
173	0x0d	13
174	0xe7	-25
175	0x60	96
176	0xf4	-12
177	0xc3	-61
178	0x36	54
179	0x1c	28
180	0x4d	77
181	0x18	24
182	0xdb	-37
183	0xd6	-42
184	0x1a	26
185	0x7f	127
186	0x0e	14
187	0xe1	-31
188	0x29	41
189	0xf1	-15
190	0x04	4
191	0xf8	-8
192	0x51	81
193	0x3d	61
194	0x2c	44
195	0xb4	-76
196	0x69	105
197	0x31	49
198	0x1a	26
199	0x1b	27
200	0x31	49
201	0xfe	-2
202	0x41	65
203	0x3f	63
204	0xe2	-30
205	0x2f	47
206	0x1c	28
207	0x21	33
208	0x03	3
209	0xfa	-6
210	0xf5	-11
211	0x24	36
212	0x18	24
213	0x1b	27
214	0xff	-1
215	0x21	33
216	0x14	20
217	0x04	4
218	0xe0	-32
219	0x49	73
220	0x38	56
221	0x15	21
222	0x30	48
223	0x1f	31
224	0x06	6
225	0x0d	13
226	0x1d	29
227	0x10	16
228	0xb0	-80
229	0x1a	26
230	0xfa	-6
231	0xc9	-55
232	0x17	23
233	0x01	1
234	0x1d	29
235	0xde	-34
236	0xc1	-63
237	0x1e	30
238	0xc7	-57
239	0xd4	-44
240	0xba	-70
241	0x35	53
242	0xf3	-13
243	0x30	48
244	0xcd	-51
245	0x0e	14
246	0xee	-18
247	0xd4	-44
248	0xd3	-45
249	0xd9	-39
250	0xce	-50
251	0x34	52
252	0x09	9
253	0x22	34
254	0xfa	-6
255	0x15	21

tfl.pseudo_qconst1 i1 [64, 512]
0	0x2b	43
1	0xf5	-11
2	0x23	35
3	0xd0	-48
4	0x05	5
5	0xfd	-3
6	0xd2	-46
7	0xd7	-41
8	0xe2	-30
9	0x3c	60
10	0x2d	45
11	0x4d	77
12	0x9b	-101
13	0xb9	-71
14	0x0b	11
15	0xcf	-49
16	0x3e	62
17	0xe0	-32
18	0x1b	27
19	0xf8	-8
20	0x24	36
21	0xfa	-6
22	0xcc	-52
23	0x2f	47
24	0x68	104
25	0xde	-34
26	0xec	-20
27	0x43	67
28	0x2e	46
29	0xdf	-33
30	0x12	18
31	0xdc	-36
32	0x11	17
33	0x04	4
34	0x41	65
35	0x40	64
36	0x32	50
37	0x24	36
38	0x11	17
39	0x01	1
40	0x41	65
41	0xe4	-28
42	0xfe	-2
43	0x3b	59
44	0x47	71
45	0x46	70
46	0xa8	-88
47	0x25	37
48	0x33	51
49	0xfd	-3
50	0xd0	-48
51	0x1b	27
52	0x4f	79
53	0xc7	-57
54	0x11	17
55	0x01	1
56	0x00	0
57	0xab	-85
58	0xeb	-21
59	0xf2	-14
60	0x0b	11
61	0x2e	46
62	0xc1	-63
63	0x52	82
64	0x1e	30
65	0x1f	31
66	0x35	53
67	0x20	32
68	0x2a	42
69	0x24	36
70	0x28	40
71	0x0f	15
72	0xf9	-7
73	0x5d	93
74	0xda	-38
75	0x32	50
76	0x18	24
77	0x13	19
78	0x03	3
79	0x09	9
80	0x50	80
81	0x23	35
82	0xda	-38
83	0x16	22
84	0xd2	-46
85	0xf2	-14
86	0x03	3
87	0xec	-20
88	0x5c	92
89	0xd3	-45
90	0xf9	-7
91	0x3d	61
92	0xe5	-27
93	0xc4	-60
94	0xcd	-51
95	0xcf	-49
96	0x2e	46
97	0xd4	-44
98	0x3a	58
99	0x23	35
100	0xf9	-7
101	0x05	5
102	0x07	7
103	0xe0	-32
104	0x0b	11
105	0xfd	-3
106	0x1e	30
107	0x20	32
108	0x7f	127
109	0xd3	-45
110	0xd8	-40
111	0x6b	107
112	0x0b	11
113	0xc7	-57
114	0x98	-104
115	0xdd	-35
116	0x2e	46
117	0x0a	10
118	0x9e	-98
119	0xcb	-53
120	0x48	72
121	0x17	23
122	0xec	-20
123	0xcd	-51
124	0xd3	-45
125	0x4b	75
126	0xf1	-15
127	0x2b	43
128	0x18	24
129	0x3a	58
130	0xcc	-52
131	0xf3	-13
132	0x32	50
133	0xed	-19
134	0x04	4
135	0x17	23
136	0xf1	-15
137	0x33	51
138	0xef	-17
139	0x30	48
140	0x19	25
141	0xc0	-64
142	0xbc	-68
143	0xea	-22
144	0x07	7
145	0x1e	30
146	0xe3	-29
147	0x10	16
148	0xb7	-73
149	0xca	-54
150	0x0e	14
151	0xfe	-2
152	0xed	-19
153	0xe9	-23
154	0xce	-50
155	0xc8	-56
156	0x3b	59
157	0xde	-34
158	0x24	36
159	0x0c	12
160	0x2f	47
161	0x02	2
162	0xa9	-87
163	0xe2	-30
164	0xc1	-63
165	0xcb	-53
166	0xed	-19
167	0xe6	-26
168	0xda	-38
169	0xd0	-48
170	0xf7	-9
171	0x0e	14
172	0x4d	77
173	0xe5	-27
174	0xfc	-4
175	0x16	22
176	0x10	16
177	0xbc	-68
178	0x05	5
179	0x20	32
180	0xc8	-56
181	0xf4	-12
182	0xe9	-23
183	0xea	-22
184	0x09	9
185	0x34	52
186	0xcd	-51
187	0xe3	-29
188	0xcb	-53
189	0xe5	-27
190	0x0d	13
191	0x43	67
192	0x19	25
193	0xad	-83
194	0x2b	43
195	0x09	9
196	0x92	-110
197	0xae	-82
198	0x06	6
199	0x4d	77
200	0xd2	-46
201	0x52	82
202	0xe4	-28
203	0x72	114
204	0x05	5
205	0xa5	-91
206	0x12	18
207	0xc2	-62
208	0x7c	124
209	0xcc	-52
210	0x11	17
211	0x2b	43
212	0xba	-70
213	0x12	18
214	0xd7	-41
215	0x3b	59
216	0x27	39
217	0x24	36
218	0xc2	-62
219	0xb8	-72
220	0x2a	42
221	0xe0	-32
222	0xf5	-11
223	0xfa	-6
224	0xeb	-21
225	0xfa	-6
226	0x94	-108
227	0x0a	10
228	0xab	-85
229	0x07	7
230	0x38	56
231	0xce	-50
232	0x37	55
233	0x12	18
234	0x4b	75
235	0x3d	61
236	0x53	83
237	0xbc	-68
238	0xa6	-90
239	0x36	54
240	0xc2	-62
241	0x22	34
242	0xc7	-57
243	0x1a	26
244	0xc5	-59
245	0x34	52
246	0x95	-107
247	0xfa	-6
248	0x48	72
249	0xb8	-72
250	0x45	69
251	0xea	-22
252	0x01	1
253	0x43	67
254	0xd9	-39
255	0x2e	46
